tflite_model.tflite (tflite, 319724 bytes, 4 tensors)

sequential_1/dense_2/BiasAdd/ReadVariableOp f4 [10]
0	0xbe262046	-0.16223249
1	0xbe43d17f	-0.19122885
2	0xbd53ccbb	-0.051708918
3	0xbe71e747	-0.23623382
4	0x3d95d90f	0.07316791
5	0x3a77945f	0.0009444411
6	0x3dabbd3d	0.08385704
7	0xbe6fb5b3	-0.23409157
8	0x3f141516	0.57844675
9	0xbd60d4ba	-0.05489037

sequential_1/dense_1/BiasAdd/ReadVariableOp f4 [100]
0	0xbc4a405b	-0.012344445
1	0x3df8607b	0.12127777
2	0xbbabda83	-0.0052445545
3	0x3e3bb806	0.18331918
4	0xbd6a694c	-0.057229325
5	0x3ecf8924	0.40534317
6	0x3de2e367	0.1107853
7	0xbea3f2fe	-0.32021326
8	0x3ecd08e6	0.4004585
9	0xbdb72001	-0.08941651
10	0xbe58e22b	-0.21180026
11	0x3dc880cd	0.09790192
12	0xbd7f7a20	-0.062372327
13	0x3eb4375b	0.35198483
14	0x3c527da8	0.012847342
15	0x3dc75dc3	0.097346805
16	0xbd2e03b2	-0.042483993
17	0xbe25bcb9	-0.16185273
18	0xbcd2f705	-0.025752554
19	0x3c5cab42	0.013468565
20	0xbd6631db	-0.05619989
21	0x3d2b3207	0.041795757
22	0xbd10a476	-0.035313092
23	0x3ea95f5c	0.33080566
24	0x3e71f250	0.23627591
25	0x3e946c11	0.28988698
26	0x3e2df600	0.16988373
27	0xbe5c55f4	-0.21517164
28	0x3eae9aab	0.34102377
29	0x3e4a074a	0.19729343
30	0x3d75880e	0.059944205
31	0x3dd96528	0.10614997
32	0x3eb56554	0.3542887
33	0x3e7a5330	0.24445796
34	0xbcc59eed	-0.024123633
35	0xbc58d56c	-0.0132344775
36	0xbdcfcd02	-0.10146524
37	0xbe316a16	-0.17325625
38	0x3b000365	0.0019533273
39	0x3eb39769	0.35076454
40	0xbdad3429	-0.084572144
41	0x3e1a3c9d	0.15062185
42	0xbda8951d	-0.08231566
43	0xbe9255de	-0.28581136
44	0x3d27a433	0.040928077
45	0xbd7457cf	-0.059654053
46	0xbce9cc81	-0.028539898
47	0xba0bfa3c	-0.0005339717
48	0xbc4d8992	-0.012545006
49	0xbea28be0	-0.3174734
50	0xbe134f09	-0.14385618
51	0xbd9f800a	-0.077880934
52	0x3d0b7046	0.03404262
53	0x3e569524	0.2095533
54	0x3bbf8cab	0.0058456264
55	0x3d2c677d	0.04209088
56	0x3d689d2a	0.05679051
57	0xbc60c868	-0.013719656
58	0x3daa0cf3	0.08303251
59	0x3d1ee5ab	0.038793247
60	0x3be8dc66	0.0071063517
61	0x3d2c6c82	0.04209567
62	0x3e898432	0.2685867
63	0x3e506a8b	0.20353143
64	0xbddac037	-0.10681193
65	0xbe12636a	-0.14295736
66	0x3dac4e7c	0.08413407
67	0x3cf4fbb2	0.029905174
68	0xbd9980c7	-0.074952655
69	0xbe3a159a	-0.18172303
70	0xbe57d0bc	-0.2107572
71	0x3df45e87	0.11932092
72	0x3e324815	0.1741031
73	0xbdd0803c	-0.10180709
74	0x3d0ebd25	0.03484835
75	0x3db8ed2f	0.09029614
76	0xbead5841	-0.33856395
77	0x3d8b509d	0.06802485
78	0x3c8e72bf	0.0173887
79	0x3e9d730d	0.3075184
80	0xbd097045	-0.033554334
81	0x3dc98086	0.09838967
82	0xbc32ba69	-0.010908701
83	0xbe430d86	-0.19048128
84	0x3cb261f5	0.021775225
85	0x3e0f7157	0.1400808
86	0x3c2da2d5	0.010597904
87	0xbdcbeaa4	-0.099568635
88	0xbcb0f677	-0.021601899
89	0x3d44cf00	0.048048973
90	0x3e7d7af7	0.24753939
91	0x3e23434d	0.15943642
92	0x3e2f057a	0.17091933
93	0x3df04706	0.11732297
94	0xbce32a54	-0.027730145
95	0xbe51613d	-0.2044725
96	0xbe4cdebd	-0.20006843
97	0x3e56cf29	0.20977463
98	0x3e2de5ec	0.1698224
99	0xbe9a833e	-0.30178255

sequential_1/dense_1/MatMul f4 [100, 784]
0	0x3d5f8d78	0.054578274
1	0xbd4f89e2	-0.050668605
2	0xbd1b8af0	-0.037974298
3	0x3d728a10	0.059213698
4	0xbceca898	-0.028888986
5	0x3c3514e0	0.01105234
6	0x3d991f68	0.074766934
7	0x3d6261c0	0.055269003
8	0x3d823134	0.06357041
9	0x3d550780	0.052009106
10	0x3d500304	0.050784126
11	0x3d7a34a0	0.061085343
12	0x3d9317c0	0.07182264
13	0x3d8cf15f	0.068819754
14	0xbd4e3f7e	-0.05035352
15	0x3d6d9b95	0.058009703
16	0xbd6b3728	-0.057425648
17	0x3b4320e0	0.0029774234
18	0xbc6c3bb8	-0.014418535
19	0x3d788014	0.06066902
20	0x3da753ce	0.08170281
21	0xbd3b1233	-0.045671653
22	0x3d8b6fd0	0.06808436
23	0xbc0fceb0	-0.0087773055
24	0xbcd12cfa	-0.025534142
25	0xbafd2ec0	-0.0019316301
26	0x3d625814	0.05525978
27	0xbd05c70f	-0.03266054
28	0xbd3f23d6	-0.046665035
29	0x3d479be0	0.04873264
30	0x3d4c1720	0.04982674
31	0x3d8a2f9a	0.067473605
32	0x3db88f27	0.09011679
33	0x3db05b92	0.08611216
34	0x3d535f6a	0.051604666
35	0x3ddd54e4	0.10807207
36	0x3dcb3f0c	0.099241346
37	0x3e1fbf97	0.1560043
38	0x3ea99987	0.33124945
39	0xbcab80e5	-0.020935485
40	0xbe248833	-0.16067581
41	0xbd6f5d99	-0.05843887
42	0xbe4afa9f	-0.19822167
43	0xbf1981af	-0.59963506
44	0xbee6bfa2	-0.4506808
45	0xbeba27fb	-0.36358628
46	0x3e811dd8	0.2521808
47	0x3e3a06ed	0.18166704
48	0x3e18a8d3	0.14908151
49	0x3dfeadd6	0.124355
50	0x3dd2e6af	0.10297906
51	0x3d0c294b	0.034219068
52	0x3d739168	0.059464842
53	0x3d7fe19c	0.062471017
54	0xbd7d3f5e	-0.06182801
55	0x3d0dafac	0.034591362
56	0xbca68c1a	-0.020330478
57	0x3d62754c	0.055287644
58	0xbc617619	-0.013761067
59	0xbea7ec01	-0.32797244
60	0xbe63c1b5	-0.22241862
61	0x3d9710da	0.07376261
62	0x3e82bdbe	0.25535387
63	0x3e8b7e59	0.27244833
64	0x3decaff6	0.115569994
65	0xbdf2470b	-0.118299566
66	0xbd880b56	-0.06642787
67	0x3d3867fb	0.04502104
68	0xbde0a9da	-0.109698966
69	0xbe3cb097	-0.18426739
70	0x3d9b6afc	0.07588765
71	0x3d86f837	0.06590312
72	0xbe9c17f6	-0.3048703
73	0xbdf5a2ff	-0.1199398
74	0xbe398970	-0.18118834
75	0xbe9f23d2	-0.31082016
76	0xbe5f882e	-0.21829292
77	0xbb9855cb	-0.004648899
78	0x3e978ab7	0.2959802
79	0x3ec260db	0.3796452
80	0x3d7f1be2	0.06228245
81	0xbd10a53c	-0.03531383
82	0x3ca7db9c	0.02049046
83	0xbd3f099e	-0.04664003
84	0xbb148960	-0.002266489
85	0x3c666a88	0.014063485
86	0xbe4cd129	-0.20001663
87	0xbe19ba3f	-0.15012453
88	0x3e9b3e8c	0.30321157
89	0x3ea69813	0.32537898
90	0xbe3c9bef	-0.18418859
91	0xbdefce36	-0.117092535
92	0xbf24edb2	-0.64425194
93	0xbe5ede62	-0.2176452
94	0xbebb45c5	-0.36576667
95	0xbecd3e62	-0.40086657
96	0xbea76f6a	-0.3270219
97	0xbe9302c9	-0.28713062
98	0xbd936229	-0.07196457
99	0x3c885246	0.016640794
100	0xbea8d4a5	-0.32974735
101	0xbe953e57	-0.29149124
102	0x3dfe03db	0.12403079
103	0x3c1f274b	0.009713958
104	0xbe027810	-0.12741113
105	0x3e6074b5	0.2191952
106	0x3d3dc309	0.04632858
107	0xbd978e0b	-0.074001394
108	0x3e20cd2c	0.15703267
109	0x3d9e015b	0.07715102
110	0x3e7d4d61	0.24736549
111	0xbc43f630	-0.011960551
112	0x3c48a690	0.012246743
113	0x3cc8709f	0.024467764
114	0xbe44244a	-0.19154468
115	0x3e736225	0.23767908
116	0x3e7d8353	0.24757127
117	0x3da1b14a	0.07895143
118	0xbd890e7f	-0.06692218
119	0xbe7f32b7	-0.2492169
120	0xbf451769	-0.76988846
121	0xbee46d55	-0.44614664
122	0xbe257ecd	-0.16161652
123	0x3cbe52d7	0.02323286
124	0x3e0aeb2f	0.13566278
125	0xbc0f1fc9	-0.0087356055
126	0x3c35a338	0.011086278
127	0x3da7e4f2	0.08197965
128	0xbc4b2aff	-0.012400388
129	0x3d87464c	0.06605205
130	0x3e8a454b	0.2700599
131	0xbd8ee113	-0.06976523
132	0x3d936eee	0.071988925
133	0x3e4c7868	0.19967806
134	0x3d79c9e6	0.06098356
135	0x3ee9eddc	0.45689285
136	0x3ea50d19	0.32236555
137	0x3e6e0d6c	0.23247308
138	0x3edf8528	0.43656278
139	0xbd9ab84a	-0.075546816
140	0x3d3a124c	0.045427606
141	0x3d29b71a	0.041434385
142	0xbe3e3181	-0.18573572
143	0x3ed3e2d0	0.41383982
144	0x3e98a5ed	0.2981409
145	0x3dfa7396	0.122290775
146	0xbea2eaa8	-0.31819654
147	0xbf08fc3e	-0.5350989
148	0xbf4ca871	-0.7994452
149	0xbe9daed8	-0.30797458
150	0xbd6596eb	-0.05605213
151	0x3e2c4c20	0.16825914
152	0x3d27ecdf	0.040997382
153	0x3e0332c4	0.12812334
154	0xbc8d93b7	-0.01728235
155	0x3cb5979c	0.02216702
156	0x3d185744	0.037192598
157	0x3e08494d	0.13309212
158	0x3e8321d3	0.25611743
159	0x3cdf01fc	0.027222626
160	0x3d787602	0.060659416
161	0x3d186974	0.037209943
162	0xbbb59aaf	-0.0055421214
163	0xbd7a6649	-0.061132703
164	0xbe4925bd	-0.19643302
165	0xbea78d7c	-0.32725132
166	0x3ef58871	0.4795566
167	0x3de40dbb	0.111354314
168	0xbca8afb8	-0.020591602
169	0xbd6690ef	-0.056290563
170	0xbcf81b40	-0.030286431
171	0x3e3ac61f	0.1823964
172	0x3d189903	0.0372553
173	0xbed9ea0f	-0.42561385
174	0xbe8fbba6	-0.28072852
175	0xbe9d16bd	-0.3068141
176	0xbe77d7f5	-0.24203475
177	0xbebf4402	-0.37356573
178	0xbe2fa429	-0.17152466
179	0x3d463850	0.048393548
180	0x3e94a940	0.29035378
181	0x3bca60cb	0.0061760894
182	0x3ca92747	0.020648612
183	0x3de6e953	0.11274972
184	0x3e27e5bd	0.16396232
185	0x3d4fb6c9	0.050711427
186	0x3ea05793	0.31316814
187	0x3e4ade9e	0.19811484
188	0x3e90196a	0.2814439
189	0xbe8d2222	-0.27565104
190	0xbf02be7f	-0.51071924
191	0xbc96b6a7	-0.018397642
192	0x3e012de5	0.12615164
193	0x3e4bc3da	0.1989893
194	0x3ec27919	0.37983015
195	0x3e379695	0.17928536
196	0xbda49bda	-0.08037539
197	0xbd922dd2	-0.07137646
198	0x3e4ccd1a	0.20000115
199	0xbd9ed87f	-0.07756137
200	0xbe58c795	-0.21169885
201	0x3b8ce480	0.0042997003
202	0xbe500176	-0.20313057
203	0xbe935a64	-0.287799
204	0xbe8f191f	-0.27948853
205	0xbe1cae7e	-0.15300938
206	0xbdab63a4	-0.08368614
207	0x3e28d860	0.1648879
208	0x3dc41af3	0.09575453
209	0x3d1c73ed	0.038196493
210	0x3d1410e4	0.03614892
211	0x3dfdc522	0.12391116
212	0x3db5daf5	0.08879653
213	0x3e3a445c	0.1819014
214	0x3de01da8	0.109431565
215	0xbd291147	-0.041276243
216	0x3dba54b9	0.09098191
217	0x3de58045	0.11206106
218	0xbe67d7cd	-0.22640915
219	0xbea3c31b	-0.3198479
220	0x3d7d270a	0.06180481
221	0x3eb523b1	0.35378793
222	0xbe91c495	-0.28470293
223	0x3ab5a63c	0.0013858746
224	0xbf1f005f	-0.6210994
225	0xbcbd6923	-0.023121422
226	0x3de56a73	0.11201944
227	0xbc5e96e1	-0.013585777
228	0x3eb7f790	0.35931063
229	0xbce17629	-0.027522163
230	0xbe7972ef	-0.2436025
231	0xbeef83c2	-0.4678021
232	0xbd697a89	-0.057001624
233	0xbe46c406	-0.19410715
234	0xbec44d7f	-0.38340375
235	0x3d6d2280	0.05789423
236	0x3dbbf48c	0.09177503
237	0x3d403a46	0.046930574
238	0x3e28bf57	0.1647924
239	0xbea25c1f	-0.31710908
240	0xbe5123bf	-0.20423792
241	0xbe13c0cd	-0.14429016
242	0xbc3fe42b	-0.011712114
243	0xbdec45fb	-0.11536785
244	0xbd0b5d8a	-0.034024753
245	0x3eae249b	0.34012303
246	0x3d12d6b4	0.035849288
247	0xbde0dcd3	-0.10979619
248	0x3dd55823	0.10417201
249	0x3e60f475	0.21968253
250	0xbead78d0	-0.33881235
251	0x3db5d27d	0.08878038
252	0x3d948a4e	0.07252942
253	0x3dbbebec	0.09175858
254	0x3e1c55b3	0.15267067
255	0xbe9e3d39	-0.30906084

sequential_1/dense_2/MatMul f4 [10, 100]
0	0xbec1b716	-0.37834996
1	0x3e0c869a	0.13723221
2	0xbf18d938	-0.5970645
3	0xbe1c189c	-0.15243763
4	0xbf1a8bf1	-0.60369784
5	0xbec0c98b	-0.37653765
6	0xbf803e22	-1.0018961
7	0xbf24d329	-0.64384705
8	0xbe7acefb	-0.2449302
9	0xbf9f4375	-1.2442461
10	0xbf3c83f5	-0.7363885
11	0x3e5a4bf0	0.2131803
12	0x3d31d2d6	0.04341396
13	0xbe8d1921	-0.27558234
14	0x3dcb1d5f	0.099177115
15	0x3e5973ad	0.21235533
16	0x3f0ed273	0.5578987
17	0xbd2864d5	-0.041111786
18	0xbd808619	-0.06275577
19	0xbf9c1e4a	-1.2196743
20	0xbf8802cc	-1.0625854
21	0x3e9c6981	0.30549243
22	0xbd2128d2	-0.03934557
23	0xbebd4df3	-0.36973533
24	0x3d1462c5	0.036227006
25	0x3d94224d	0.07233105
26	0xbecf453c	-0.4048251
27	0x3d169b92	0.036769457
28	0xbde9ad0d	-0.1140996
29	0x3e855a98	0.2604568
30	0xbee1d00b	-0.44104037
31	0xbf96a8c4	-1.1770253
32	0xbe44c536	-0.19215855
33	0xbf712a6b	-0.9420535
34	0xbe6baa8a	-0.23014274
35	0xbdeede07	-0.11663442
36	0xbf4e4d91	-0.80587107
37	0x3d5da160	0.054108977
38	0xbedd6e03	-0.43247995
39	0x3e23066a	0.15920416
40	0x3e4fb912	0.20285442
41	0xbce0d083	-0.027443176
42	0x3e93ba23	0.2885295
43	0x3c827895	0.015926639
44	0xbf133dc0	-0.575161
45	0xbee4e723	-0.44707593
46	0xbfb2d271	-1.3970472
47	0x3f09b6bd	0.5379446
48	0x3e53b77c	0.20675462
49	0xbe3ef889	-0.18649496
50	0x3e8dce1d	0.27696314
51	0xbe2bc8a3	-0.16775756
52	0x3cf4642e	0.029832926
53	0xbf12c67e	-0.57334125
54	0x3bf3b752	0.007437625
55	0x3ee1879b	0.4404877
56	0xbf177020	-0.59155464
57	0x3e982e36	0.29722756
58	0x3ef1c91a	0.4722374
59	0x3ecad577	0.39615986
60	0xbea679c1	-0.32514766
61	0x3e42071c	0.18948025
62	0x3debb753	0.11509576
63	0xbf099b20	-0.53752327
64	0x3ea37ffb	0.3193358
65	0x3e40f224	0.1884237
66	0x3e43ca7f	0.19120215
67	0x3e104757	0.14089714
68	0x3edd581a	0.4323128
69	0x3f31b350	0.69414234
70	0x3e20515c	0.15656036
71	0xbd1fd440	-0.039020777
72	0x3eec1be8	0.4611504
73	0x3e00ba50	0.12571073
74	0xbf4cb743	-0.79967135
75	0xbf362ea3	-0.7116491
76	0xbd8e6bfb	-0.069541894
77	0x3e13bbaa	0.14427057
78	0xbcd62217	-0.026139302
79	0xbeb0050f	-0.3437886
80	0xbde530c8	-0.11190945
81	0x3bc0e6bb	0.00588688
82	0x3e80c081	0.2514687
83	0x3e870d41	0.263773
84	0xbfaa5d6a	-1.3309758
85	0x3f7a7656	0.97836816
86	0x3d1520be	0.03640818
87	0x3ed7cc9c	0.42148292
88	0x3df38fac	0.118926376
89	0xbf55f9a2	-0.83584034
90	0x3ef4ee1c	0.47837913
91	0xbf9cab21	-1.2239724
92	0x3e2373a2	0.15962079
93	0x3d01cd7d	0.03169011
94	0xbe3ee4c8	-0.1864196
95	0xbefa2778	-0.48858237
96	0x3edcd2fc	0.43129718
97	0xbdaf134e	-0.08548604
98	0xbf934ad8	-1.1507215
99	0x3e088537	0.13332067
100	0xbed786b6	-0.42094964
101	0xbf3c3cc4	-0.7353022
102	0x3e380536	0.17970738
103	0x3f18f2f3	0.5974571
104	0xbfa58eab	-1.2934164
105	0x3ee2ff33	0.44335327
106	0xbe82090f	-0.25397536
107	0x3e0615a5	0.13094194
108	0xbd9f2caf	-0.077721946
109	0xbf41fde2	-0.7577802
110	0xbdc1bd9c	-0.09459993
111	0xbea0475f	-0.31304452
112	0xbeece871	-0.4627109
113	0xbf9121ad	-1.1338402
114	0xbf0c28d3	-0.5474979
115	0xbdace342	-0.084417835
116	0x3e8fb2e8	0.28066182
117	0x3ed16920	0.40900517
118	0xbf10d1d9	-0.565702
119	0xbce969e5	-0.028492877
120	0xbd3ae51f	-0.045628663
121	0x3e94963c	0.2902087
122	0xbf524ddc	-0.82150054
123	0x3e01ef6d	0.1268899
124	0x3d7ead27	0.06217685
125	0xbe5566aa	-0.20839944
126	0xbf20dcd8	-0.6283698
127	0xbdae4aef	-0.08510386
128	0x3d0ca457	0.034336414
129	0xbebe7945	-0.37201896
130	0x3dc4a3e8	0.09601575
131	0x3f1fd0f3	0.62428206
132	0x3ef1c937	0.47223827
133	0xbdedd1f4	-0.11612311
134	0x3e81f241	0.25380138
135	0x3ec3c258	0.3823421
136	0xbedd3ef9	-0.43212107
137	0xbed7e6aa	-0.4216817
138	0xbd7ec134	-0.06219597
139	0x3e94d7f8	0.2907102
140	0x3ea29332	0.31752926
141	0xbc1caee3	-0.009563181
142	0xbf7419e7	-0.95352024
143	0x3d5a1ada	0.053248264
144	0x3e852e8c	0.26012075
145	0xbcd8a520	-0.026445925
146	0x3f59efe0	0.85131645
147	0xbf6fbad2	-0.9364444
148	0x3f04d0c0	0.5188103
149	0x3e9564ac	0.2917837
150	0xbf9c99bc	-1.2234416
151	0x3f3919c0	0.72304916
152	0xbf400de3	-0.7502119
153	0x3e97b023	0.2962657
154	0x3eeae180	0.45875168
155	0xbf180b48	-0.59392214
156	0xbe56f271	-0.20990922
157	0xbf28671d	-0.6578234
158	0x3f67a4dc	0.9048593
159	0xbfba8eaf	-1.4574794
160	0xbe00ef2e	-0.1259124
161	0xbe2ff856	-0.17184576
162	0xbec4cd3c	-0.3843783
163	0x3e07b11f	0.1325116
164	0x3ea1a6b3	0.31572494
165	0xbd8b9239	-0.06814999
166	0xbed40a4a	-0.414141
167	0xbe18117d	-0.14850421
168	0xbebc22db	-0.36745343
169	0xbed1db2e	-0.40987533
170	0xbe95469b	-0.2915543
171	0xbe95ea93	-0.29280528
172	0x3f81a42b	1.0128225
173	0x3e4c82f5	0.19971831
174	0x3f192857	0.5982718
175	0x3f743c87	0.9540486
176	0x3eed3f47	0.4633734
177	0xbf14922f	-0.5803556
178	0x3d17953a	0.037007548
179	0xbde1c0ca	-0.110231
180	0xbf3258ad	-0.6966656
181	0xbf956a0b	-1.1672987
182	0xbe700e12	-0.23442867
183	0xbf8a1cbf	-1.0790023
184	0xbf4e533b	-0.8059575
185	0x3f014101	0.50489813
186	0x3e3ad4ec	0.18245286
187	0x3e05fc6d	0.13084574
188	0xbe61917c	-0.22028154
189	0x3e80bb4f	0.25142905
190	0xbf90f0db	-1.1323503
191	0x3dfe7559	0.12424726
192	0xbeeee349	-0.4665778
193	0x3ede030a	0.43361694
194	0xbe479f33	-0.19494323
195	0xbe3f49da	-0.18680516
196	0x3cc1732d	0.02361449
197	0x3e15721a	0.14594308
198	0xbdaf5a72	-0.08562173
199	0x3d7e740e	0.062122397
200	0xbe7b6dc3	-0.2455359
201	0xbdcc6b64	-0.09981421
202	0x3e835e8f	0.2565808
203	0xbf4bf0dd	-0.79664403
204	0xbe1806c5	-0.14846332
205	0x3efdf66a	0.49602062
206	0xbf2bf542	-0.6717111
207	0x3dde4bb4	0.10854283
208	0xbf904917	-1.1272305
209	0xbe77e860	-0.24209738
210	0x3eca0414	0.39456236
211	0xbeb7faa2	-0.35933405
212	0x3e218aae	0.15775558
213	0x3f0b8977	0.5450663
214	0xbe8cda25	-0.2751018
215	0x3d9b9b33	0.07597961
216	0x3f01e3d9	0.5073829
217	0xbe303a79	-0.17209806
218	0x3e834337	0.25637218
219	0x3f58aef3	0.8464195
220	0xbe8eef9f	-0.2791719
221	0x3f084ce8	0.5324235
222	0x3eff5b85	0.4987451
223	0xbeaedcf3	-0.34152946
224	0xbf7dea9a	-0.991861
225	0xbe213447	-0.15742598
226	0x3f1e7e8a	0.61911833
227	0x3e65015f	0.22363804
228	0xbf84bf0d	-1.0370804
229	0x3df44eb1	0.11929072
230	0xbe220f20	-0.15826082
231	0x3dec9e64	0.11553648
232	0x3e25eb58	0.16203058
233	0xbf2c0193	-0.671899
234	0x3eaf2c99	0.34213713
235	0x3e8a3324	0.26992142
236	0xbd0e96a5	-0.034811635
237	0xbd901a13	-0.07036223
238	0xbed68110	-0.41895342
239	0xbda54f29	-0.08071739
240	0x3e3cb088	0.18426716
241	0xbd414fc3	-0.047195207
242	0x3eb7882e	0.35846084
243	0x3ec4e8d6	0.3845889
244	0x3f5d3ced	0.8642109
245	0xbf74bf8e	-0.9560479
246	0xbf730fb9	-0.94945866
247	0xbc88226b	-0.016617974
248	0x3eacf0fc	0.33777606
249	0x3e0573da	0.13032475
250	0xbeffd6ef	-0.4996867
251	0xbe2f9d69	-0.17149891
252	0x3f0c6a15	0.5484937
253	0x3f1e9b1f	0.61955446
254	0x3e7d2032	0.24719313
255	0x3e9b3d23	0.3032008
