tflite_model.tflite (tflite, 319696 bytes, 4 tensors)

sequential/dense_1/BiasAdd/ReadVariableOp f4 [10]
-0.2295641 -0.3090895 0.09109944 -0.13971478 0.086939536 -0.030976843 0.0185102 -0.25554547
0.52079916 0.024048265
00000000: da12 6bbe fb40 9ebe 5892 ba3d 6411 0fbe
00000010: 5b0d b23d 26c3 fdbc b4a2 973c dbd6 82be
00000020: 1853 053f de00 c53c

sequential/dense/BiasAdd/ReadVariableOp f4 [100]
0.046047058 0.287149 0.08105648 0.17156833 0.16815943 0.01596762 -0.15818205 0.04626536
-0.030181015 0.014132646 0.059483144 -0.3165276 0.27885768 0.01584212 -0.02171864 0.03089198
-0.029582728 0.260024 0.14005701 -0.014047286 -0.014266191 -0.050522033 0.09275543 -0.08037314
-0.041528348 0.12563492 0.18943246 -0.28052714 0.22907774 0.12953547 0.25569376 0.046528965
0.42747885 0.25028837 0.23676641 0.09885582 0.29544783 -0.030724714 0.23615026 0.08508316
-0.17019169 -0.040273815 0.16278447 0.34144598 -0.24681082 0.04755029 0.09687927 -0.0992164
-0.15969305 -0.14811495 0.0012704477 0.072297506 -0.04446272 -0.009198232 -0.19026947 0.3450058
0.0854326 0.13640368 -0.19777912 -0.42954442 0.26561776 0.22093993 -0.08953987 0.11913665
0.010812427 0.20074233 0.13919246 -0.03082079 -0.40346375 0.21409701 -0.03237263 -0.18800572
0.089489624 0.13819471 0.1446797 0.2106054 -0.09336455 0.28320673 -0.12661152 -0.33271164
0.54910594 0.0075279395 0.13767949 0.22515567 0.06695743 0.044974007 0.027364828 0.122092105
-0.09160602 -0.122361764 -0.1297393 -0.09652904 0.25013092 -0.062040117 -0.36231774 0.039025277
-0.025953738 0.09281527 0.20812503 -0.22316016
00000000: d79b 3c3d 3205 933e f100 a63d 9caf 2f3e
00000010: fc31 2c3e 87ce 823c 7afa 21be bf80 3d3d
00000020: 2d3e f7bc 9d8c 673c 99a4 733d e80f a2be
00000030: 6fc6 8e3e 55c7 813c 4aeb b1bc 2d11 fd3c
00000040: 7a57 f2bc de21 853e 1b6b 0f3e 9626 66bc
00000050: bebc 69bc 31f0 4ebd 8ff6 bd3d ac9a a4bd
00000060: a119 2abd 71a6 003e 95fa 413e 41a1 8fbe
00000070: 5b93 6a3e f2a4 043e 4bea 823e 2895 3e3d
00000080: 82de da3e cc25 803e e572 723e ec74 ca3d
00000090: f044 973e 65b2 fbbc 60d1 713e 1440 ae3d
000000a0: bb46 2ebe 28f6 24bd f9b0 263e 02d2 ae3e
000000b0: fabb 7cbe 18c4 423d a468 c63d f831 cbbd
000000c0: 9386 23be 72ab 17be 2785 a63a b710 943d
000000d0: 8b1e 36bd 2eb4 16bc 00d6 42be 9aa4 b03e
000000e0: 49f7 ae3d 68ad 0b3e 9c86 4abe 3fed dbbe
000000f0: 0dff 873e 143e 623e ae60 b7bd eafd f33d
00000100: 9b26 313c 668f 4d3e 7888 0e3e e27b fcbc
00000110: cd92 cebe 3f3c 5b3e 2a99 04bd 9284 40be
00000120: 5646 b73d ea82 0d3e ea26 143e f1a8 573e
00000130: ea35 bfbd 7900 913e 73a6 01be 2e59 aabe
00000140: 3592 0c3f efac f63b dafb 0c3e 358f 663e
00000150: fa20 893d aa36 383d 342c e03c 6d0b fa3d
00000160: f09b bbbd ce98 fabd 61da 04be 04b1 c5bd
00000170: 2911 803e c71d 7ebd b681 b9be f8d8 1f3d
00000180: ef9c d4bc ef15 be3d ba1e 553e 1984 64be

sequential/dense/MatMul f4 [100, 784]
0.014062695 -0.02901122 0.07126035 -0.05037951 -0.023875065 0.018678553 0.045826584 0.07551001
-0.064399935 0.057142854 -0.013405845 0.0021894574 0.03378747 -0.0654966 0.011885523 -0.060944427
0.038103975 0.06123638 -0.04840718 0.053881958 0.023091145 0.065996036 0.018809155 0.06272131
0.060924098 -0.044417657 0.029919274 -0.01930327 -0.059833445 -0.0742027 0.07161097 0.032331884
0.04036472 0.012440502 -0.17742242 -0.13244928 -0.09565939 -0.09014443 -0.0701975 0.17522188
0.042769957 -0.06138449 0.122787245 -0.35623047 -0.0897168 0.06577152 -0.033789866 -0.2544839
-0.32711154 -0.08362635 -0.0676595 -0.03033695 0.06487341 0.0013098568 0.00047064573 -0.011310495
-0.0029295534 0.014057018 0.024272403 -0.44444105 -0.34715012 -0.100954324 -0.1727734 -0.07846817
-0.54865795 -0.035271827 -0.2836978 -0.8220727 -0.32538262 -0.0127690565 0.029944206 -0.42398986
-0.06733512 0.05775515 0.27934736 0.5464534 -0.08874591 -0.1101977 0.056935612 -0.28064322
-0.06865244 0.023123387 -0.002084054 0.042827785 0.07610947 0.032460265 0.019616975 -0.44191822
-0.576897 -0.31651846 -0.5344853 -0.1912741 -0.2667979 -0.1577303 -0.16440769 -0.0056722667
-0.10350764 0.0131912995 0.0919725 -0.19950372 -0.08883168 -0.0044888486 0.029824462 -0.19432026
-0.3695216 -0.19682096 -0.33005148 -0.5903203 -0.3602663 0.27701002 0.0024208426 -0.01371672
0.049503982 -0.041740812 -0.08796438 -0.17712781 0.06421857 0.24227749 0.5347825 0.2736299
0.10662556 0.18806614 -0.061042823 -0.17840187 0.085454635 0.025582591 -0.07191213 0.051609654
0.04609185 -0.036566913 -0.2191731 -0.28164762 -0.22374736 -0.49637142 -0.18233883 -0.11862263
0.06138028 0.24232231 -0.27222916 0.054553874 -0.0017611012 0.009272225 -0.035794742 -0.23220648
0.19048487 0.6188722 0.45231342 0.07256557 0.23202032 0.09481076 -0.06781943 -0.30579847
-0.058246817 0.048237633 -0.03427779 0.048529062 0.022082169 -0.15985991 -0.11167794 -0.26374754
-0.3252137 -0.37992248 -0.5189539 -0.28262207 0.010448211 0.0673382 -0.3457206 0.0043163965
0.06322345 -0.017306937 0.38682526 0.4238393 0.23078924 0.40638325 0.409178 0.09977185
0.18886939 -0.16002007 -0.23733842 -0.061001226 -0.0341021 -0.18468606 -0.007996961 -0.14998889
-0.05390105 -0.16940919 -0.08580021 -0.049340587 -0.1724166 -0.5242667 -0.5210448 -0.24161461
-0.35300258 -0.32208878 0.00502577 -0.17562786 -0.013620414 -0.25498778 0.48473543 0.5842355
0.3949534 0.22391269 0.3634193 0.16321912 -0.03576157 -0.039967332 -0.10300865 -0.17284186
0.03426492 -0.07187844 -0.29119003 0.114193 0.1543177 -0.09930288 -0.18477581 0.021880902
-0.09564788 -0.07041878 -0.13879552 -0.38742033 -0.32683635 -0.17300312 -0.0691047 -0.14107226
-0.40924245 0.4528234 0.35050663 0.13061263 0.12065461 0.09882159 -0.03940867 -0.1189246
-0.145093 0.1934074 0.2882231 0.15266818 -0.22481667 -0.37400037 -0.26156852 -0.016050791
0.03499382 -0.091450356 -0.030611796 0.0052961833 0.06409963 -0.051290154 -0.39058477 -0.32785323
0.045544006 0.06515203 -0.072860114 -0.28729552 0.16695157 0.044104155 -0.06806194 -0.24500717
00000000: 3867 663c f0a8 edbc f2f0 913d bf5a 4ebd
00000010: a495 c3bc c403 993c a8b4 3b3d fea4 9a3d
00000020: 1de4 83bd a00e 6a3d 30a4 5bbc 007d 0f3b
00000030: bb64 0a3d 1523 86bd 7fbb 423c dda0 79bd
00000040: ea12 1c3d 00d3 7a3d 9b46 46bd 54b3 5c3d
00000050: a429 bd3c ee28 873d a815 9a3c 0874 803d
00000060: 8c8b 793d 4aef 35bd 4419 f53c e421 9ebc
00000070: ea13 75bd 96f7 97bd c6a8 923d 706e 043d
00000080: 7a55 253d 3fd3 4b3c 39ae 35be c9a0 07be
00000090: 12e9 c3bd a59d b8bd b5c3 8fbd 5d6d 333e
000000a0: 8d2f 2f3d 4e6e 7bbd e177 fb3d d763 b6be
000000b0: 71bd b7bd 38b3 863d 3e67 0abd b74b 82be
000000c0: 2a7b a7be 4b44 abbd 1091 8abd 3285 f8bc
000000d0: 5adc 843d 80af ab3a 00c1 f639 a84f 39bc
000000e0: c0fd 3fbb 684f 663c ebd6 c63c c78d e3be
000000f0: a9bd b1be 24c1 cebd 83eb 30be ebb3 a0bd
00000100: d974 0cbf 3179 10bd d740 91be 5b73 52bf
00000110: 8d98 a6be 4e35 51bc 8d4d f53c 3315 d9be
00000120: ffe6 89bd aa90 6c3d 9e06 8f3e 5fe4 0b3f
00000130: 6ac0 b5bd 55af e1bd 5135 693d 78b0 8fbe
00000140: a799 8cbd 426d bd3c a094 08bb 306c 2f3d
00000150: 48df 9b3d 0ef5 043d c7b3 a03c 1b43 e2be
00000160: 86af 13bf b50e a2be 07d4 08bf 5cdd 43be
00000170: bc99 88be 0d84 21be 7d5a 28be 6cde b9bb
00000180: d0fb d3bd 5220 583c 145c bc3d b44a 4cbe
00000190: 62ed b5bd 3117 93bb 6e52 f43c e4fb 46be
000001a0: ef31 bdbe 6f8b 49be 82fc a8be 3b1f 17bf
000001b0: d374 b8be 42d4 8d3e 00a7 1e3b 18bc 60bc
000001c0: b0c4 4a3d 6af8 2abd ab26 b4bd fe60 35be
000001d0: 0785 833d 9717 783e 82e7 083f 3819 8c3e
000001e0: 805e da3d 6994 403e 0a08 7abd fbae 36be
000001f0: d702 af3d 9592 d13c ab46 93bd a564 533d
00000200: cfca 3c3d 30c7 15bd ea6e 60be 1e34 90be
00000210: 071e 65be 6524 febe 08b7 3abe 6cf0 f2bd
00000220: e369 7b3d 5723 783e 9f61 8bbe e273 5f3d
00000230: c0d4 e6ba 88ea 173c 829d 12bd 89c7 6dbe
00000240: 770e 433e 696e 1e3f a095 e73e 429d 943d
00000250: bc96 6d3e 252c c23d eae4 8abd 9e91 9cbe
00000260: 3794 6ebd d394 453d de66 0cbd 69c6 463d
00000270: aae5 b43c 51b2 23be 67b7 e4bd eb09 87be
00000280: 6982 a6be 3385 c2be 2ada 04bf d7b3 90be
00000290: f92e 2b3c 9ce8 893d 4a02 b1be 8f70 8d3b
000002a0: 4c7b 813d 47c7 8dbc f60d c63e 7701 d93e
000002b0: 0454 6c3e 7711 d03e c77f d13e 2f55 cc3d
000002c0: fa66 413e 4ddc 23be d808 73be 6cdc 79bd
000002d0: a5ae 0bbd 581e 3dbe af05 03bc b096 19be
000002e0: 59c7 5cbd 9a79 2dbe 05b8 afbd 5b19 4abd
000002f0: fa8d 30be 5836 06bf 3163 05bf d269 77be
00000300: c1bc b4be d2e8 a4be 37af a43b cad7 33be
00000310: 2828 5fbc c28d 82be 3e2f f83e 7590 153f
00000320: 5537 ca3e 5e49 653e 1812 ba3e ea22 273e
00000330: b97a 12bd c9b4 23bd 33f6 d2bd 75fd 30be
00000340: 5f59 0c3d 0135 93bd dc16 95be 05de e93d
00000350: 7605 1e3e 4f5f cbbd df35 3dbe 943f b33c
00000360: 09e3 c3bd b937 90bd 6a20 0ebe f55b c6be
00000370: 1857 a7be bb27 31be c486 8dbd 3f75 10be
00000380: 3a88 d1be 78d8 e73e 9b75 b33e 51bf 053e
00000390: c419 f73d f962 ca3d fc6a 21bd be8e f3bd
000003a0: 4293 14be 970c 463e fa91 933e 0c55 1c3e
000003b0: 5736 66be fa7c bfbe 4fec 85be f37c 83bc
000003c0: ae55 0f3d 534a bbbd 97c5 fabc 9b8b ad3b
000003d0: ab46 833d a015 52bd bafa c7be 61dc a7be
000003e0: 5a8c 3a3d 6d6e 853d af37 95bd 6618 93be
000003f0: 5af5 2a3e 8fa6 343d 0f64 8bbd 29e3 7abe

sequential/dense_1/MatMul f4 [10, 100]
0.13932797 -1.0925518 0.34546283 -0.14378618 -0.84497005 -0.5564511 -0.5531536 -0.5271975
0.4039232 -0.6334449 0.21795398 0.119461745 0.0027753 0.44419774 0.3282042 -0.05940871
0.1860784 0.3572647 0.02276788 0.16603269 0.27829608 0.20186386 -0.042793654 0.18673442
0.22729576 -0.7681064 -0.58203024 0.2857461 0.47467265 0.46481922 -0.3316722 -0.5606619
-0.106221534 -1.1134104 0.48744056 0.23465173 0.15086377 0.33452934 -0.60651225 0.064413615
-0.3246408 -1.418531 -0.44247633 -0.53888214 0.1498752 0.2536301 -0.817125 -0.4683432
0.28239986 0.30557728 -0.816089 -0.46020624 0.06272987 0.6211819 -0.046185035 -0.3619987
-0.4119592 -0.2511183 -1.5217228 0.1615778 0.4585767 -0.48215273 -1.2419162 -0.33476177
0.3248508 0.23286535 -0.0858091 0.4358756 -0.36602524 -0.385417 0.26110917 -1.1835831
-0.14175363 0.033371974 0.08380664 0.09858665 -1.1630962 0.5442791 0.6215093 0.5871089
-0.96888834 -0.4181876 0.066976175 -0.61114335 -0.19894022 -0.046723954 0.3532089 0.19834022
-0.3607514 0.14351943 0.42504537 -0.9613123 -0.6970132 -0.80267274 0.40268973 0.089069836
-1.0040663 -0.68986934 0.27013144 0.19197565 0.23205443 1.4808724 -0.37784845 -0.17794178
-1.2862625 0.15800126 0.111872666 0.277018 -0.80455965 0.018523468 0.108417735 -0.4021498
-0.9866008 -0.036619652 0.12815882 0.90459555 -0.28567132 0.17877056 -0.5778615 0.13391076
-0.41459072 0.0036935187 -0.5657379 0.39676827 -0.58950305 0.251997 0.1887329 0.46868372
0.05886631 -0.7179319 0.5163752 -0.7059966 -0.66321695 -0.23289022 0.083485134 -0.18364063
0.071851455 -0.60382557 -0.93624175 0.14113759 0.46255362 0.45306072 -0.14210899 -0.3259264
0.13300903 -1.1049988 0.73380655 0.31817374 0.12766992 0.3894651 -0.64235437 0.019412516
0.8201123 0.28028783 -0.19401588 -0.29173443 0.013492961 0.22133644 -0.015812008 0.38087663
0.84112984 -0.77736485 0.20079923 -0.13658054 -1.1514317 -1.2182511 0.49780446 -0.5437743
0.2756659 0.086471565 1.2049516 0.3970786 0.34219536 0.22920875 -0.24999845 -0.5651905
0.031344384 -1.4813979 0.034966078 -0.090581246 -0.4229757 -0.733563 -0.11444841 -0.4960095
0.2687409 0.21139586 0.14517747 -0.09835348 0.30210653 0.33064622 -1.0204821 -0.56533414
-0.50726277 0.11326839 -0.056569897 0.13335237 -0.8428377 0.20738873 -0.4624064 -0.56123734
0.4192623 -1.082196 -0.015712932 0.04183787 -0.08332018 -0.5155859 0.58772516 0.01161687
0.19394071 -0.3649365 0.33805415 -0.124499954 0.07796902 0.18615864 -0.74974906 -0.6989742
0.10586503 0.89491457 -0.03742249 0.1818197 -0.15947631 -0.13331112 0.01607639 -0.38182428
-1.4751828 -0.28450954 -0.25161114 -0.78514606 0.009733222 0.15846808 0.18792555 -0.41634807
0.28311384 -0.23426357 -0.14919527 0.0050237477 0.35465655 0.21854359 -0.42392474 0.40643686
-0.09770512 -1.1007786 -0.9990284 -1.227917 -0.6770055 -0.1089651 0.12713316 0.3623892
-0.14622852 0.402106 0.84106916 0.049134843 -0.86237746 0.31308082 0.35734224 -0.19192287
00000000: feab 0e3e bdd8 8bbf 81e0 b03e af3c 13be
00000010: f54f 58bf 9473 0ebf 799b 0dbf 6af6 06bf
00000020: 06cf ce3e 7229 22bf 542f 5f3e 5ca8 f43d
00000030: cfe1 353b e36d e33e 620a a83e 8c56 73bd
00000040: 568b 3e3e 66eb b63e b483 ba3c 7904 2a3e
00000050: d37c 8e3e 66b5 4e3e 6648 2fbd 4f37 3f3e
00000060: 38c0 683e 9fa2 44bf efff 14bf 504d 923e
00000070: 4b08 f33e c9fc ed3e f0d0 a9be 8a87 0fbf
00000080: ad8a d9bd 3b84 8ebf cf91 f93e 8b48 703e
00000090: 087c 1a3e 6e47 ab3e 6344 1bbf 49eb 833d
000000a0: 5237 a6be 6c92 b5bf 428c e2be 2ef4 09bf
000000b0: e278 193e cedb 813e 1b2f 51bf aeca efbe
000000c0: b796 903e a074 9c3e 35eb 50bf 27a0 ebbe
000000d0: 8578 803d c705 1f3f 852c 3dbd e557 b9be
000000e0: 51ec d2be 9492 80be d0c7 c2bf a774 253e
000000f0: 91ca ea3e b9dc f6be 1cf7 9ebf e565 abbe
00000100: d852 a63e 4174 6e3e aebc afbd 162b df3e
00000110: a967 bbbe 6155 c5be 1ab0 853e a77f 97bf
00000120: dd27 11be 0db1 083d d1a2 ab3d cce7 c93d
00000130: 56e0 94bf e055 0b3f 3c1b 1f3f c54c 163f
00000140: 1109 78bf af1c d6be ce2a 893d e473 1cbf
00000150: fcb6 4bbe 9e61 3fbd ccd7 b43e b319 4b3e
00000160: 68b4 b8be c2f6 123e 8c9f d93e 9018 76bf
00000170: 756f 32bf f67b 4dbf 592d ce3e 3f6a b63d
00000180: 3f85 80bf 479b 30bf ab4e 8a3e 4495 443e
00000190: ad9f 6d3e 3a8d bd3f 5a75 c1be 5f36 36be
000001a0: 40a4 a4bf 15cb 213e 7f1d e53d 4ed5 8d3e
000001b0: 9ff7 4dbf 87be 973c 1e0a de3d 94e6 cdbe
000001c0: df91 7cbf 7dfe 15bd 113c 033e 9393 673f
000001d0: 8343 92be a10f 373e bbee 13bf e71f 093e
000001e0: 3c45 d4be f60e 723b 33d4 10bf 3625 cb3e
000001f0: ace9 16bf c005 813e 3343 413e 50f7 ef3e
00000200: cd1d 713d 63ca 37bf 2a31 043f 31bc 34bf
00000210: 96c8 29bf c67a 6ebe 41fa aa3d 4a0c 3cbe
00000220: db26 933d 5094 1abf 8aad 6fbf 5f86 103e
00000230: d4d3 ec3e 93f7 e73e 0585 11be d3df a6be
00000240: 8533 083e 9a70 8dbf bfda 3b3f abe7 a23e
00000250: e7bb 023e f867 c73e 5671 24bf ff06 9f3c
00000260: e1f2 513f e381 8f3e 19ac 46be 375e 95be
00000270: 9511 5d3c 05a6 623e 2f88 81bc 4302 c33e
00000280: 4954 573f 6201 47bf 509e 4d3e c5db 0bbe
00000290: 1d62 93bf a7ef 9bbf 3ae0 fe3e cb34 0bbf
000002a0: 1524 8d3e 0118 b13d db3b 9a3f e34d cb3e
000002b0: 3b34 af3e b3b5 6a3e 98ff 7fbe 53b0 10bf
000002c0: f862 003d 729e bdbf 9738 0f3d a982 b9bd
000002d0: 4590 d8be c9ca 3bbf ee63 eabd f5f4 fdbe
000002e0: 6898 893e 2878 583e 67a9 143e 8d6d c9bd
000002f0: b5ad 9a3e 764a a93e 289f 82bf bdb9 10bf
00000300: f9db 01bf 42f9 e73d d6b5 67bd 868d 083e
00000310: 36c4 57bf b65d 543e 88c0 ecbe 40ad 0fbf
00000320: 8ca9 d63e 6685 8abf 68b8 80bc 305e 2b3d
00000330: c5a3 aabd 70fd 03bf 2875 163f af54 3e3c
00000340: 6598 463e f5d8 babe 6f15 ad3e d5f9 febd
00000350: 39ae 9f3d 5fa0 3e3e 8eef 3fbf f9ef 32bf
00000360: c4cf d83d 1f19 653f 5348 19bd f22e 3a3e
00000370: c24d 23be b682 08be a2b2 833c 797e c3be
00000380: cad2 bcbf 3cab 91be 2dd3 80be 55ff 48bf
00000390: 1878 1f3c 7545 223e 8e6f 403e 932b d5be
000003a0: 4cf4 903e cae2 6fbe a5c6 18be 409e a43b
000003b0: 8b95 b53e e4c9 5f3e aa0c d9be 7e18 d03e
000003c0: 9f19 c8bd 50e6 8cbf 53c0 7fbf 622c 9dbf
000003d0: 3c50 2dbf 1829 dfbd 322f 023e 148b b93e
000003e0: eebc 15be d6e0 cd3e 4f50 573f 9e41 493d
000003f0: c5c4 5cbf 214c a03e 90f5 b63e 6e87 44be
