tflite_aware_model.tflite (tflite, 82576 bytes, 2 tensors)

sequential/quant_dense/MatMul;sequential/quant_dense/LastValueQuant/FakeQuantWithMinMaxVars i1 [100, 784] scale=0.01811038 zero_point=0
0	0x01	0.01811038
1	0xfe	-0.03622076
2	0x04	0.07244152
3	0xfd	-0.05433114
4	0xff	-0.01811038
5	0x01	0.01811038
6	0x03	0.05433114
7	0x04	0.07244152
8	0xfc	-0.07244152
9	0x03	0.05433114
10	0xff	-0.01811038
11	0x00	0.0
12	0x02	0.03622076
13	0xfc	-0.07244152
14	0x01	0.01811038
15	0xfd	-0.05433114
16	0x02	0.03622076
17	0x03	0.05433114
18	0xfd	-0.05433114
19	0x03	0.05433114
20	0x01	0.01811038
21	0x04	0.07244152
22	0x01	0.01811038
23	0x03	0.05433114
24	0x03	0.05433114
25	0xfe	-0.03622076
26	0x02	0.03622076
27	0xff	-0.01811038
28	0xfd	-0.05433114
29	0xfc	-0.07244152
30	0x04	0.07244152
31	0x02	0.03622076
32	0x02	0.03622076
33	0x01	0.01811038
34	0xf6	-0.1811038
35	0xf9	-0.12677266
36	0xfb	-0.0905519
37	0xfb	-0.0905519
38	0xfc	-0.07244152
39	0x0a	0.1811038
40	0x02	0.03622076
41	0xfc	-0.07244152
42	0x07	0.12677266
43	0xec	-0.3622076
44	0xfb	-0.0905519
45	0x04	0.07244152
46	0xfe	-0.03622076
47	0xf2	-0.2535453
48	0xee	-0.32598683
49	0xfb	-0.0905519
50	0xfc	-0.07244152
51	0xfe	-0.03622076
52	0x04	0.07244152
53	0x00	0.0
54	0x00	0.0
55	0xff	-0.01811038
56	0x00	0.0
57	0x01	0.01811038
58	0x01	0.01811038
59	0xe6	-0.47086987
60	0xec	-0.3622076
61	0xfa	-0.10866228
62	0xf6	-0.1811038
63	0xfb	-0.0905519
64	0xe1	-0.56142175
65	0xfe	-0.03622076
66	0xf0	-0.28976607
67	0xd2	-0.83307743
68	0xef	-0.30787647
69	0xfe	-0.03622076
70	0xfe	-0.03622076
71	0xe9	-0.41653872
72	0xfe	-0.03622076
73	0x06	0.10866228
74	0x11	0.30787647
75	0x20	0.57953215
76	0xfb	-0.0905519
77	0xfa	-0.10866228
78	0x03	0.05433114
79	0xf1	-0.27165568
80	0xfc	-0.07244152
81	0x01	0.01811038
82	0x00	0.0
83	0x02	0.03622076
84	0x04	0.07244152
85	0x02	0.03622076
86	0x01	0.01811038
87	0xe6	-0.47086987
88	0xdf	-0.59764254
89	0xed	-0.3440972
90	0xde	-0.61575294
91	0xf0	-0.28976607
92	0xf1	-0.27165568
93	0xf5	-0.19921418
94	0xf4	-0.21732455
95	0xff	-0.01811038
96	0xfb	-0.0905519
97	0x01	0.01811038
98	0x05	0.0905519
99	0xf5	-0.19921418
100	0xf9	-0.12677266
101	0xfd	-0.05433114
102	0x01	0.01811038
103	0xf4	-0.21732455
104	0xf0	-0.28976607
105	0xf8	-0.14488304
106	0xee	-0.32598683
107	0xe0	-0.57953215
108	0xec	-0.3622076
109	0x0f	0.27165568
110	0x00	0.0
111	0xff	-0.01811038
112	0x03	0.05433114
113	0xfe	-0.03622076
114	0xfb	-0.0905519
115	0xf6	-0.1811038
116	0x03	0.05433114
117	0x0c	0.21732455
118	0x1d	0.525201
119	0x0d	0.23543493
120	0x04	0.07244152
121	0x0a	0.1811038
122	0xfd	-0.05433114
123	0xf5	-0.19921418
124	0x04	0.07244152
125	0x01	0.01811038
126	0xfb	-0.0905519
127	0x04	0.07244152
128	0x04	0.07244152
129	0xff	-0.01811038
130	0xf3	-0.23543493
131	0xee	-0.32598683
132	0xee	-0.32598683
133	0xe2	-0.54331136
134	0xf9	-0.12677266
135	0x00	0.0
136	0x08	0.14488304
137	0x0f	0.27165568
138	0xf1	-0.27165568
139	0x03	0.05433114
140	0x00	0.0
141	0x01	0.01811038
142	0xfe	-0.03622076
143	0xf3	-0.23543493
144	0x0a	0.1811038
145	0x23	0.6338633
146	0x1c	0.5070906
147	0x06	0.10866228
148	0x0f	0.27165568
149	0x06	0.10866228
150	0xfa	-0.10866228
151	0xed	-0.3440972
152	0xfa	-0.10866228
153	0x01	0.01811038
154	0xfd	-0.05433114
155	0x03	0.05433114
156	0x02	0.03622076
157	0xf8	-0.14488304
158	0xfb	-0.0905519
159	0xef	-0.30787647
160	0xe9	-0.41653872
161	0xe7	-0.4527595
162	0xe3	-0.525201
163	0xf6	-0.1811038
164	0x04	0.07244152
165	0x04	0.07244152
166	0xed	-0.3440972
167	0x00	0.0
168	0x03	0.05433114
169	0xff	-0.01811038
170	0x17	0.41653872
171	0x18	0.4346491
172	0x0e	0.2535453
173	0x17	0.41653872
174	0x19	0.4527595
175	0x07	0.12677266
176	0x0a	0.1811038
177	0xf5	-0.19921418
178	0xef	-0.30787647
179	0xfb	-0.0905519
180	0xfe	-0.03622076
181	0xf5	-0.19921418
182	0x00	0.0
183	0xf8	-0.14488304
184	0xfe	-0.03622076
185	0xf8	-0.14488304
186	0xfe	-0.03622076
187	0xfe	-0.03622076
188	0xf6	-0.1811038
189	0xe2	-0.54331136
190	0xe2	-0.54331136
191	0xf2	-0.2535453
192	0xf1	-0.27165568
193	0xf0	-0.28976607
194	0x02	0.03622076
195	0xf6	-0.1811038
196	0xff	-0.01811038
197	0xf0	-0.28976607
198	0x1a	0.47086987
199	0x22	0.61575294
200	0x16	0.39842835
201	0x0a	0.1811038
202	0x14	0.3622076
203	0x08	0.14488304
204	0xfe	-0.03622076
205	0xfd	-0.05433114
206	0xfa	-0.10866228
207	0xf7	-0.16299342
208	0x04	0.07244152
209	0xfd	-0.05433114
210	0xf1	-0.27165568
211	0x08	0.14488304
212	0x0b	0.19921418
213	0xfc	-0.07244152
214	0xf8	-0.14488304
215	0x04	0.07244152
216	0xfb	-0.0905519
217	0xfe	-0.03622076
218	0xf9	-0.12677266
219	0xea	-0.39842835
220	0xf1	-0.27165568
221	0xf7	-0.16299342
222	0xfe	-0.03622076
223	0xf8	-0.14488304
224	0xe7	-0.4527595
225	0x19	0.4527595
226	0x13	0.3440972
227	0x08	0.14488304
228	0x07	0.12677266
229	0x05	0.0905519
230	0xfd	-0.05433114
231	0xf6	-0.1811038
232	0xf7	-0.16299342
233	0x0b	0.19921418
234	0x10	0.28976607
235	0x0a	0.1811038
236	0xf3	-0.23543493
237	0xeb	-0.380318
238	0xf2	-0.2535453
239	0xff	-0.01811038
240	0x02	0.03622076
241	0xfa	-0.10866228
242	0xfe	-0.03622076
243	0x01	0.01811038
244	0x07	0.12677266
245	0x00	0.0
246	0xeb	-0.380318
247	0xef	-0.30787647
248	0x04	0.07244152
249	0x04	0.07244152
250	0xfc	-0.07244152
251	0xf0	-0.28976607
252	0x09	0.16299342
253	0x02	0.03622076
254	0xfd	-0.05433114
255	0xf3	-0.23543493

sequential/quant_dense_1/MatMul;sequential/quant_dense_1/LastValueQuant/FakeQuantWithMinMaxVars i1 [10, 100] scale=0.014483619 zero_point=0
0	0x08	0.11586895
1	0xae	-1.1876568
2	0x16	0.3186396
3	0xf8	-0.11586895
4	0xc3	-0.88350075
5	0xd8	-0.57934475
6	0xdb	-0.53589386
7	0xd7	-0.5938284
8	0x19	0.36209047
9	0xcf	-0.7096973
10	0x0d	0.18828703
11	0x09	0.13035257
12	0xfd	-0.043450855
13	0x1d	0.42002493
14	0x16	0.3186396
15	0xfd	-0.043450855
16	0x0a	0.14483619
17	0x19	0.36209047
18	0x03	0.043450855
19	0x0b	0.1593198
20	0x12	0.26070514
21	0x0c	0.17380342
22	0xfc	-0.057934474
23	0x0c	0.17380342
24	0x0e	0.20277067
25	0xc9	-0.79659903
26	0xd6	-0.60831195
27	0x13	0.27518874
28	0x1d	0.42002493
29	0x20	0.4634758
30	0xe6	-0.37657407
31	0xdb	-0.53589386
32	0xf6	-0.14483619
33	0xae	-1.1876568
34	0x21	0.47795942
35	0x10	0.2317379
36	0x07	0.10138533
37	0x19	0.36209047
38	0xd3	-0.65176284
39	0x03	0.043450855
40	0xe7	-0.36209047
41	0x97	-1.52078
42	0xde	-0.49244303
43	0xda	-0.5503775
44	0x0b	0.1593198
45	0x0e	0.20277067
46	0xbb	-0.9993697
47	0xdd	-0.50692666
48	0x16	0.3186396
49	0x13	0.27518874
50	0xc4	-0.8690171
51	0xdf	-0.47795942
52	0x01	0.014483619
53	0x27	0.5648611
54	0xfb	-0.07241809
55	0xe7	-0.36209047
56	0xe2	-0.43450856
57	0xec	-0.28967237
58	0x90	-1.6221653
59	0x09	0.13035257
60	0x1e	0.43450856
61	0xdd	-0.50692666
62	0xa9	-1.2600749
63	0xe7	-0.36209047
64	0x17	0.33312324
65	0x10	0.2317379
66	0xf7	-0.13035257
67	0x1c	0.40554133
68	0xe3	-0.42002493
69	0xe0	-0.4634758
70	0x0c	0.17380342
71	0xaf	-1.1731731
72	0xf7	-0.13035257
73	0xfc	-0.057934474
74	0x08	0.11586895
75	0x06	0.08690171
76	0xaa	-1.2455912
77	0x22	0.49244303
78	0x2a	0.60831195
79	0x29	0.5938284
80	0xb7	-1.0573041
81	0xde	-0.49244303
82	0x05	0.07241809
83	0xd3	-0.65176284
84	0xef	-0.24622151
85	0xfa	-0.08690171
86	0x17	0.33312324
87	0x0f	0.21725428
88	0xe2	-0.43450856
89	0x0d	0.18828703
90	0x1b	0.3910577
91	0xbc	-0.98488605
92	0xcc	-0.75314814
93	0xcd	-0.73866457
94	0x1b	0.3910577
95	0x03	0.043450855
96	0xb4	-1.100755
97	0xcc	-0.75314814
98	0x0e	0.20277067
99	0x0c	0.17380342
100	0x0c	0.17380342
101	0x6a	1.5352635
102	0xe3	-0.42002493
103	0xf5	-0.1593198
104	0xa4	-1.332493
105	0x0b	0.1593198
106	0x08	0.11586895
107	0x14	0.28967237
108	0xc7	-0.82556623
109	0x03	0.043450855
110	0x0b	0.1593198
111	0xe6	-0.37657407
112	0xb8	-1.0428206
113	0xfa	-0.08690171
114	0x06	0.08690171
115	0x43	0.9704024
116	0xe9	-0.33312324
117	0x0d	0.18828703
118	0xd8	-0.57934475
119	0x09	0.13035257
120	0xe2	-0.43450856
121	0xfe	-0.028967237
122	0xd5	-0.6227956
123	0x18	0.34760684
124	0xd6	-0.60831195
125	0x10	0.2317379
126	0x0d	0.18828703
127	0x23	0.50692666
128	0x05	0.07241809
129	0xca	-0.7821154
130	0x23	0.50692666
131	0xd2	-0.6662465
132	0xcf	-0.7096973
133	0xf0	-0.2317379
134	0x06	0.08690171
135	0xf1	-0.21725428
136	0x04	0.057934474
137	0xd2	-0.6662465
138	0xc0	-0.9269516
139	0x09	0.13035257
140	0x1f	0.44899216
141	0x22	0.49244303
142	0xf5	-0.1593198
143	0xe7	-0.36209047
144	0x0a	0.14483619
145	0xb0	-1.1586895
146	0x30	0.6952137
147	0x16	0.3186396
148	0x09	0.13035257
149	0x19	0.36209047
150	0xd5	-0.6227956
151	0x01	0.014483619
152	0x3e	0.8979843
153	0x12	0.26070514
154	0xf2	-0.20277067
155	0xea	-0.3186396
156	0xff	-0.014483619
157	0x0c	0.17380342
158	0xfa	-0.08690171
159	0x1a	0.37657407
160	0x37	0.79659903
161	0xc4	-0.8690171
162	0x0f	0.21725428
163	0xf5	-0.1593198
164	0xa8	-1.2745584
165	0xa5	-1.3180093
166	0x22	0.49244303
167	0xd6	-0.60831195
168	0x13	0.27518874
169	0x06	0.08690171
170	0x53	1.2021403
171	0x1d	0.42002493
172	0x17	0.33312324
173	0x0e	0.20277067
174	0xee	-0.26070514
175	0xd7	-0.5938284
176	0x01	0.014483619
177	0x95	-1.5497472
178	0x00	0.0
179	0xf7	-0.13035257
180	0xe0	-0.4634758
181	0xca	-0.7821154
182	0xfb	-0.07241809
183	0xe0	-0.4634758
184	0x16	0.3186396
185	0x0e	0.20277067
186	0x08	0.11586895
187	0xf6	-0.14483619
188	0x15	0.30415598
189	0x18	0.34760684
190	0xb7	-1.0573041
191	0xd8	-0.57934475
192	0xdb	-0.53589386
193	0x07	0.10138533
194	0xfc	-0.057934474
195	0x05	0.07241809
196	0xc3	-0.88350075
197	0x0f	0.21725428
198	0xde	-0.49244303
199	0xd8	-0.57934475
200	0x1c	0.40554133
201	0xaf	-1.1731731
202	0xfc	-0.057934474
203	0x01	0.014483619
204	0xf7	-0.13035257
205	0xdc	-0.5214103
206	0x29	0.5938284
207	0xff	-0.014483619
208	0x0b	0.1593198
209	0xde	-0.49244303
210	0x18	0.34760684
211	0xf8	-0.11586895
212	0x04	0.057934474
213	0x0a	0.14483619
214	0xc8	-0.81108266
215	0xcf	-0.7096973
216	0x06	0.08690171
217	0x42	0.95591885
218	0xfd	-0.043450855
219	0x0d	0.18828703
220	0xf6	-0.14483619
221	0xf6	-0.14483619
222	0x00	0.0
223	0xe4	-0.40554133
224	0x95	-1.5497472
225	0xea	-0.3186396
226	0xee	-0.26070514
227	0xc9	-0.79659903
228	0x01	0.014483619
229	0x0b	0.1593198
230	0x08	0.11586895
231	0xe0	-0.4634758
232	0x12	0.26070514
233	0xf1	-0.21725428
234	0xf5	-0.1593198
235	0xff	-0.014483619
236	0x19	0.36209047
237	0x0c	0.17380342
238	0xdf	-0.47795942
239	0x1d	0.42002493
240	0xfa	-0.08690171
241	0xb1	-1.1442058
242	0xb9	-1.0283369
243	0xa8	-1.2745584
244	0xd0	-0.6952137
245	0xf9	-0.10138533
246	0x04	0.057934474
247	0x16	0.3186396
248	0xf3	-0.18828703
249	0x1c	0.40554133
250	0x38	0.81108266
251	0x04	0.057934474
252	0xc1	-0.91246796
253	0x13	0.27518874
254	0x18	0.34760684
255	0xf1	-0.21725428
